15:35:48 : ----------------------------------------------------------------
        Layer (type)               Output Shape         Param #
================================================================
            Conv3d-1     [-1, 128, 17, 128, 96]           3,584
       BatchNorm3d-2     [-1, 128, 17, 128, 96]             256
            Conv3d-3       [-1, 128, 8, 64, 48]         442,496
       BatchNorm3d-4       [-1, 128, 8, 64, 48]             256
            Conv3d-5       [-1, 256, 4, 32, 24]         884,992
       BatchNorm3d-6       [-1, 256, 4, 32, 24]             512
            Conv3d-7       [-1, 256, 2, 16, 12]       1,769,728
       BatchNorm3d-8       [-1, 256, 2, 16, 12]             512
 AdaptiveAvgPool3d-9         [-1, 256, 1, 1, 1]               0
           Linear-10                  [-1, 128]          32,896
          Dropout-11                  [-1, 128]               0
           Linear-12                   [-1, 64]           8,256
          Dropout-13                   [-1, 64]               0
           Linear-14                    [-1, 2]             130
       Raw_stream-15                    [-1, 2]               0
           Conv3d-16      [-1, 64, 17, 128, 96]           3,520
      BatchNorm3d-17      [-1, 64, 17, 128, 96]             128
           Conv3d-18       [-1, 128, 8, 64, 48]         221,312
      BatchNorm3d-19       [-1, 128, 8, 64, 48]             256
           Conv3d-20       [-1, 256, 4, 32, 24]         884,992
      BatchNorm3d-21       [-1, 256, 4, 32, 24]             512
           Conv3d-22       [-1, 256, 2, 16, 12]       1,769,728
      BatchNorm3d-23       [-1, 256, 2, 16, 12]             512
AdaptiveAvgPool3d-24         [-1, 256, 1, 1, 1]               0
           Linear-25                  [-1, 128]          32,896
          Dropout-26                  [-1, 128]               0
           Linear-27                   [-1, 64]           8,256
          Dropout-28                   [-1, 64]               0
           Linear-29                    [-1, 2]             130
        OF_Stream-30                    [-1, 2]               0
           Linear-31                    [-1, 2]              10
================================================================
Total params: 6,065,870
Trainable params: 6,065,870
Non-trainable params: 0
----------------------------------------------------------------
Input size (MB): 5248.00
Forward/backward pass size (MB): 735.01
Params size (MB): 23.14
Estimated Total Size (MB): 6006.15
----------------------------------------------------------------
 
01:06:22 : ----------------------------------------------------------------
        Layer (type)               Output Shape         Param #
================================================================
            Conv3d-1     [-1, 128, 17, 128, 96]           3,584
       BatchNorm3d-2     [-1, 128, 17, 128, 96]             256
            Conv3d-3       [-1, 128, 8, 64, 48]         442,496
       BatchNorm3d-4       [-1, 128, 8, 64, 48]             256
            Conv3d-5       [-1, 256, 4, 32, 24]         884,992
       BatchNorm3d-6       [-1, 256, 4, 32, 24]             512
            Conv3d-7       [-1, 256, 2, 16, 12]       1,769,728
       BatchNorm3d-8       [-1, 256, 2, 16, 12]             512
 AdaptiveAvgPool3d-9         [-1, 256, 1, 1, 1]               0
           Linear-10                  [-1, 128]          32,896
          Dropout-11                  [-1, 128]               0
           Linear-12                   [-1, 64]           8,256
          Dropout-13                   [-1, 64]               0
           Linear-14                    [-1, 2]             130
       Raw_stream-15                    [-1, 2]               0
           Conv3d-16      [-1, 64, 17, 128, 96]           3,520
      BatchNorm3d-17      [-1, 64, 17, 128, 96]             128
           Conv3d-18       [-1, 128, 8, 64, 48]         221,312
      BatchNorm3d-19       [-1, 128, 8, 64, 48]             256
           Conv3d-20       [-1, 256, 4, 32, 24]         884,992
      BatchNorm3d-21       [-1, 256, 4, 32, 24]             512
           Conv3d-22       [-1, 256, 2, 16, 12]       1,769,728
      BatchNorm3d-23       [-1, 256, 2, 16, 12]             512
AdaptiveAvgPool3d-24         [-1, 256, 1, 1, 1]               0
           Linear-25                  [-1, 128]          32,896
          Dropout-26                  [-1, 128]               0
           Linear-27                   [-1, 64]           8,256
          Dropout-28                   [-1, 64]               0
           Linear-29                    [-1, 2]             130
        OF_Stream-30                    [-1, 2]               0
           Linear-31                    [-1, 2]              10
================================================================
Total params: 6,065,870
Trainable params: 6,065,870
Non-trainable params: 0
----------------------------------------------------------------
Input size (MB): 5248.00
Forward/backward pass size (MB): 735.01
Params size (MB): 23.14
Estimated Total Size (MB): 6006.15
----------------------------------------------------------------
 
01:35:09 : ----------------------------------------------------------------
        Layer (type)               Output Shape         Param #
================================================================
            Conv3d-1     [-1, 128, 17, 128, 96]           3,584
       BatchNorm3d-2     [-1, 128, 17, 128, 96]             256
            Conv3d-3       [-1, 128, 8, 64, 48]         442,496
       BatchNorm3d-4       [-1, 128, 8, 64, 48]             256
            Conv3d-5       [-1, 256, 4, 32, 24]         884,992
       BatchNorm3d-6       [-1, 256, 4, 32, 24]             512
            Conv3d-7       [-1, 256, 2, 16, 12]       1,769,728
       BatchNorm3d-8       [-1, 256, 2, 16, 12]             512
 AdaptiveAvgPool3d-9         [-1, 256, 1, 1, 1]               0
           Linear-10                  [-1, 128]          32,896
          Dropout-11                  [-1, 128]               0
           Linear-12                   [-1, 64]           8,256
          Dropout-13                   [-1, 64]               0
           Linear-14                    [-1, 2]             130
       Raw_stream-15                    [-1, 2]               0
           Conv3d-16      [-1, 64, 17, 128, 96]           3,520
      BatchNorm3d-17      [-1, 64, 17, 128, 96]             128
           Conv3d-18       [-1, 128, 8, 64, 48]         221,312
      BatchNorm3d-19       [-1, 128, 8, 64, 48]             256
           Conv3d-20       [-1, 256, 4, 32, 24]         884,992
      BatchNorm3d-21       [-1, 256, 4, 32, 24]             512
           Conv3d-22       [-1, 256, 2, 16, 12]       1,769,728
      BatchNorm3d-23       [-1, 256, 2, 16, 12]             512
AdaptiveAvgPool3d-24         [-1, 256, 1, 1, 1]               0
           Linear-25                  [-1, 128]          32,896
          Dropout-26                  [-1, 128]               0
           Linear-27                   [-1, 64]           8,256
          Dropout-28                   [-1, 64]               0
           Linear-29                    [-1, 2]             130
        OF_Stream-30                    [-1, 2]               0
           Linear-31                    [-1, 2]              10
================================================================
Total params: 6,065,870
Trainable params: 6,065,870
Non-trainable params: 0
----------------------------------------------------------------
Input size (MB): 5248.00
Forward/backward pass size (MB): 735.01
Params size (MB): 23.14
Estimated Total Size (MB): 6006.15
----------------------------------------------------------------
 
15:12:22 : ----------------------------------------------------------------
        Layer (type)               Output Shape         Param #
================================================================
            Conv3d-1     [-1, 128, 17, 128, 96]           3,584
       BatchNorm3d-2     [-1, 128, 17, 128, 96]             256
            Conv3d-3       [-1, 128, 8, 64, 48]         442,496
       BatchNorm3d-4       [-1, 128, 8, 64, 48]             256
            Conv3d-5       [-1, 256, 4, 32, 24]         884,992
       BatchNorm3d-6       [-1, 256, 4, 32, 24]             512
            Conv3d-7       [-1, 256, 2, 16, 12]       1,769,728
       BatchNorm3d-8       [-1, 256, 2, 16, 12]             512
 AdaptiveAvgPool3d-9         [-1, 256, 1, 1, 1]               0
           Linear-10                  [-1, 128]          32,896
          Dropout-11                  [-1, 128]               0
           Linear-12                   [-1, 64]           8,256
          Dropout-13                   [-1, 64]               0
           Linear-14                    [-1, 2]             130
       Raw_stream-15                    [-1, 2]               0
           Conv3d-16      [-1, 64, 17, 128, 96]           3,520
      BatchNorm3d-17      [-1, 64, 17, 128, 96]             128
           Conv3d-18       [-1, 128, 8, 64, 48]         221,312
      BatchNorm3d-19       [-1, 128, 8, 64, 48]             256
           Conv3d-20       [-1, 256, 4, 32, 24]         884,992
      BatchNorm3d-21       [-1, 256, 4, 32, 24]             512
           Conv3d-22       [-1, 256, 2, 16, 12]       1,769,728
      BatchNorm3d-23       [-1, 256, 2, 16, 12]             512
AdaptiveAvgPool3d-24         [-1, 256, 1, 1, 1]               0
           Linear-25                  [-1, 128]          32,896
          Dropout-26                  [-1, 128]               0
           Linear-27                   [-1, 64]           8,256
          Dropout-28                   [-1, 64]               0
           Linear-29                    [-1, 2]             130
        OF_Stream-30                    [-1, 2]               0
           Linear-31                    [-1, 2]              10
================================================================
Total params: 6,065,870
Trainable params: 6,065,870
Non-trainable params: 0
----------------------------------------------------------------
Input size (MB): 5248.00
Forward/backward pass size (MB): 735.01
Params size (MB): 23.14
Estimated Total Size (MB): 6006.15
----------------------------------------------------------------
 
