23:57:05 : ----------------------------------------------------------------
        Layer (type)               Output Shape         Param #
================================================================
            Conv3d-1      [-1, 128, 17, 38, 51]           3,584
       BatchNorm3d-2      [-1, 128, 17, 38, 51]             256
            Conv3d-3       [-1, 128, 8, 19, 25]         442,496
       BatchNorm3d-4       [-1, 128, 8, 19, 25]             256
            Conv3d-5        [-1, 256, 4, 9, 12]         884,992
       BatchNorm3d-6        [-1, 256, 4, 9, 12]             512
            Conv3d-7         [-1, 256, 2, 4, 6]       1,769,728
       BatchNorm3d-8         [-1, 256, 2, 4, 6]             512
 AdaptiveAvgPool3d-9         [-1, 256, 1, 1, 1]               0
           Linear-10                  [-1, 128]          32,896
          Dropout-11                  [-1, 128]               0
           Linear-12                   [-1, 64]           8,256
          Dropout-13                   [-1, 64]               0
           Linear-14                    [-1, 2]             130
       Raw_stream-15                    [-1, 2]               0
           Conv3d-16       [-1, 64, 17, 38, 51]           3,520
      BatchNorm3d-17       [-1, 64, 17, 38, 51]             128
           Conv3d-18       [-1, 128, 8, 19, 25]         221,312
      BatchNorm3d-19       [-1, 128, 8, 19, 25]             256
           Conv3d-20        [-1, 256, 4, 9, 12]         884,992
      BatchNorm3d-21        [-1, 256, 4, 9, 12]             512
           Conv3d-22         [-1, 256, 2, 4, 6]       1,769,728
      BatchNorm3d-23         [-1, 256, 2, 4, 6]             512
AdaptiveAvgPool3d-24         [-1, 256, 1, 1, 1]               0
           Linear-25                  [-1, 128]          32,896
          Dropout-26                  [-1, 128]               0
           Linear-27                   [-1, 64]           8,256
          Dropout-28                   [-1, 64]               0
           Linear-29                    [-1, 2]             130
        OF_Stream-30                    [-1, 2]               0
           Linear-31                    [-1, 2]              10
================================================================
Total params: 6,065,870
Trainable params: 6,065,870
Non-trainable params: 0
----------------------------------------------------------------
Input size (MB): 8102.76
Forward/backward pass size (MB): 115.13
Params size (MB): 23.14
Estimated Total Size (MB): 8241.02
----------------------------------------------------------------
 
